plc_model.pth (torch, 203348 bytes, 9 tensors)

rnn.weight_ih_l0 f4 [128, 1]
-0.025206165 -0.042365275 0.07180063 -0.08208334 0.0029027532 -0.022980144 -0.058078654 0.045875166
0.089020744 0.031987086 -0.05868788 -0.01840253 0.053230762 0.060643263 0.030007863 -0.08112984
-0.06417492 0.0075231944 -0.07906507 0.02781562 0.00988545 -0.0016647726 0.04889988 0.007834603
-0.058594126 -0.060395233 0.07199333 0.071656734 -0.00668086 0.035515558 0.0122146215 -0.071531996
-0.048636954 -0.037210245 -0.015338945 -0.023489984 0.08052899 -0.078138314 0.04051628 -0.039829217
0.074975505 0.012072173 0.036587954 -0.075236976 0.07556259 -0.028489405 -0.07809319 0.04710669
0.0060775853 -0.011933758 -0.08899433 0.06697665 -0.053058516 -0.041773245 -0.0002355518 -0.030389775
-0.016869364 -0.03406764 0.050227992 -0.03904592 -0.008576801 0.059847776 0.008850921 0.027338507
-0.030717397 -0.006402927 -0.021724228 -0.03819749 0.049587827 0.04348233 0.066696875 0.060729038
0.0671922 -0.071315765 -0.070737876 0.075840704 0.042508103 0.0023139864 0.02330099 -0.07959331
0.039657142 0.06327992 0.06879927 -0.01096547 -0.030365322 -0.086234406 0.014197252 -0.030973552
0.07034599 -0.029420795 -0.0020326236 0.055762526 0.07756069 -0.074347176 0.077457346 0.0057427064
-0.0373037 -0.04308099 0.056812704 0.077851236 -0.051573135 0.041775245 -0.044282265 0.052892473
0.0258822 -0.022316847 0.018791435 0.039970286 -0.052731533 0.041833352 -0.06587611 0.014053771
-0.060394365 -0.077887796 0.027765524 0.017840875 -0.06283495 -0.030664053 0.0136241 0.031327154
-0.080237746 -0.05937996 0.02804719 0.07597176 -0.08123594 -0.03151433 0.015168835 -0.048732772
00000000: 297d cebc 3687 2dbd 350c 933d 4f1b a8bd
00000010: 1e3c 3e3b db40 bcbc e2e3 6dbd 99e7 3b3d
00000020: 8250 b63d e404 033d b462 70bd e7c0 96bc
00000030: 8008 5a3d 1265 783d 0dd3 f53c 6727 a6bd
00000040: 246e 83bd 2185 f63b deec a1bd 95dd e33c
00000050: 95f6 213c 8034 daba 3e4b 483d b55c 003c
00000060: 6500 70bd fe60 77bd 3d71 933d c4c0 923d
00000070: 1eeb dabb c378 113d d61f 483c 5e7f 92bd
00000080: 8b37 47bd c569 18bd 3350 7bbc 116e c0bc
00000090: 62ec a43d fb06 a0bd 66f4 253d f623 23bd
000000a0: c28c 993d 5dca 453c 40dd 153d d815 9abd
000000b0: 8fc0 9a3d 9d62 e9bc 53ef 9fbd f2f2 403d
000000c0: 7b26 c73b cf85 43bc a942 b6bd 0e2b 893d
000000d0: e353 59bd 6c1a 2bbd 74fe 76b9 faf3 f8bc
000000e0: 9f31 8abc 828a 0bbd debb 4d3d 9dee 1fbd
000000f0: b685 0cbc f122 753d 7403 113c 01f5 df3c
00000100: 0da3 fbbc a5cf d1bb 02f7 b1bc f974 1cbd
00000110: 9b1c 4b3d 871a 323d 5f98 883d 03bf 783d
00000120: 109c 893d 000e 92bd 05df 90bd 5f52 9b3d
00000130: fa1c 2e3d 40a6 173b b8e1 be3c d101 a3bd
00000140: 876f 223d e798 813d a2e6 8c3d 84a8 33bc
00000150: b2c0 f8bc aa9b b0bd 979b 683c 3fbc fdbc
00000160: 8f11 903d e103 f1bc c435 05bb 3f67 643d
00000170: 24d8 9e3d 5543 98bd f5a1 9e3d 502d bc3b
00000180: c4cb 18bd b175 30bd 70b4 683d 7870 9f3d
00000190: 5a3e 53bd 851c 2b3d 5261 35bd c7a5 583d
000001a0: e806 d43c d2d1 b6bc 7ff0 993c e2b7 233d
000001b0: 05fd 57bd 7359 2b3d 0eea 86bd ca41 663c
000001c0: 1560 77bd a383 9fbd 8674 e33c 0727 923c
000001d0: 9caf 80bd 2e33 fbbc 9e37 5f3c e750 003d
000001e0: b053 a4bd 6738 73bd 38c3 e53c 1597 9b3d
000001f0: 075f a6bd 2c15 01bd b586 783c 049c 47bd

rnn.weight_hh_l0 f4 [128, 128]
0.049115207 -0.010856216 0.04606456 -0.018231334 0.07202655 0.07323549 0.03542727 0.05821838
-0.008912838 -0.08049369 0.021879679 0.037372023 0.06778232 0.011801513 0.07011379 7.0483715e-05
-0.014212878 -0.066215456 0.08047421 0.0761904 0.0052303597 0.020235145 -0.058464624 -0.016805265
0.010679142 0.021448726 -0.07477298 -0.04298028 -0.08408078 0.047327507 -0.06887132 0.05156279
0.036798168 0.075071976 0.00017466751 -0.0869594 0.041690595 0.084736936 -0.08558255 0.012532564
-0.08007492 -0.06214003 -0.027710725 0.015383512 0.026622346 -0.0046807327 -0.02378184 0.08875416
-0.06574119 0.0709353 0.0037574607 -0.08729776 -0.07279377 -0.00938307 0.08217606 0.011661292
-0.056423094 0.034794424 0.013905721 0.050265126 0.06347731 0.06333885 0.020859009 -0.05412305
-0.07390258 0.08461812 0.031092297 0.020216879 -0.013011368 0.046636242 0.021110853 0.036344174
0.047653314 0.03371038 0.010291036 -0.05394139 0.060967255 -0.018624587 -0.005883058 0.03906845
-0.033125006 0.020076545 0.08826821 -0.04708874 0.04192701 0.0122040985 0.033121858 -0.02514063
-0.011757788 -0.051243376 -0.0760032 0.06733606 -0.0838169 0.026742572 -0.01264333 -0.052756082
0.021081327 0.07266333 -0.043342315 -0.030360319 -0.04858956 0.0031590073 -0.0021335615 -0.06577426
-0.001204526 -0.0075854314 0.018376 -0.0582344 0.06306755 0.0010605053 0.048644833 0.051914603
-0.01801263 0.081364624 0.070514046 0.04813981 0.07668252 -0.06291379 -0.0801413 0.06189301
0.024930535 0.031813107 0.083345056 0.07672069 0.008515906 0.045914907 0.02521275 0.07347826
0.07022267 -0.07238049 0.058491286 0.024114417 -0.033606052 0.07500553 0.07324435 -0.06550531
0.07964637 0.004127519 0.06295018 0.05346722 -0.07091672 0.050320834 0.05982379 -0.0759307
-0.001566786 0.052043416 0.021242943 -0.015880665 -0.01216872 0.018885044 0.05161759 0.05841316
-0.027135437 0.027413994 0.0024915785 0.008099538 -0.07040705 -0.089147635 -0.018872185 -0.017226333
-0.010122427 0.04647649 0.021582834 0.07193415 0.0752095 0.06900588 0.011262278 0.082287274
0.042335477 -0.05838281 -0.021221582 0.08295447 -0.01144366 0.07696877 0.057776324 0.03111974
0.045588996 -0.054664906 -0.022528447 -0.049104217 -0.06110192 -0.08165626 -0.04590486 -0.003861614
-0.079693556 0.07667099 0.0225058 -0.02654926 0.05710498 -0.079324976 0.048685677 0.029288236
-0.002215826 0.046714466 -0.0746896 -0.03975349 -0.04364363 -0.031773567 -0.04514397 -0.064913996
0.005767628 -0.012361063 0.059189666 -0.085604005 0.022544859 -0.079294264 -0.042607475 -0.0433479
-0.05790337 0.04763096 -0.03107895 -0.08596735 0.012686627 -0.018561445 0.08429251 0.068654746
0.018239634 -0.0691787 -0.046980377 0.06092806 0.03498398 0.0026387 -0.08448153 0.07846355
0.033901196 0.051997814 -0.005825719 0.031363048 0.055136446 0.05539927 -0.0842208 -0.017458204
0.08208841 0.004958208 -0.019425565 -0.08300579 -0.06628455 -0.033297613 0.005595699 -0.027489027
-0.08154584 0.06553051 0.0864086 0.041508388 0.03798394 0.08103985 -0.05714625 -0.07045633
0.080760494 0.012971055 0.008822874 0.0031706814 0.04358083 -0.012175646 0.05055003 -0.026391344
00000000: 072d 493d 45de 31bc 31ae 3c3d e159 95bc
00000010: a882 933d 7dfc 953d 2f1c 113d 6576 6e3d
00000020: 2707 12bc e0d9 a4bd 033d b33c 6813 193d
00000030: 75d1 8a3d 225b 413c d297 8f3d a8d0 9338
00000040: 22dd 68bc f89b 87bd aacf a43d b609 9c3d
00000050: 7063 ab3b 2dc4 a53c 9a78 6fbd 32ab 89bc
00000060: 91f7 2e3c 3db5 af3c 9322 99bd 170c 30bd
00000070: 8b32 acbd 7dda 413d 680c 8dbd 8133 533d
00000080: adb9 163d 56bf 993d f426 3739 c517 b2bd
00000090: c2c3 2a3d 8f8a ad3d e745 afbd 6255 4d3c
000000a0: 52fe a3bd 8b86 7ebd 9a01 e3bc 200b 7c3c
000000b0: 1b17 da3c d560 99bb 22d2 c2bc bec4 b53d
000000c0: 51a3 86bd 8746 913d bb3f 763b 2bc9 b2bd
000000d0: e614 95bd 73bb 19bc ec4b a83d 010f 3f3c
000000e0: e71b 67bd 9984 0e3d d2d4 633c cee2 4d3d
000000f0: 6400 823d cdb7 813d 83e0 aa3c 22b0 5dbd
00000100: 3c5a 97bd 444c ad3d 46b5 fe3c de9d a53c
00000110: a22d 55bc a505 3f3d abf0 ac3c a1dd 143d
00000120: 1f30 433d e513 0a3d bc9b 283c a6f1 5cbd
00000130: cdb8 793d 9792 98bc abc6 c0bb 3d06 203d
00000140: 16ae 07bd 9177 a43c f7c5 b43d 1fe0 40bd
00000150: a8bb 2b3d b3f3 473c c9aa 073d b9f3 cdbc
00000160: bda3 40bc 93e4 51bd 91a7 9bbd 7de7 893d
00000170: 32a8 abbd 3d13 db3c f825 4fbc c316 58bd
00000180: bfb2 ac3c 83d0 943d b687 31bd 34b6 f8bc
00000190: d905 47bd 5907 4f3b 39d3 0bbb a8b4 86bd
000001a0: 30e1 9dba 368f f8bb 4489 963c 3287 6ebd
000001b0: 8f29 813d a700 8b3a ce3f 473d 68a4 543d
000001c0: 398f 93bc 7fa2 a63d ab69 903d 402e 453d
000001d0: ba0b 9d3d f2d8 80bd 1f21 a4bd 8683 7d3d
000001e0: 1f3b cc3c 764e 023d d0b0 aa3d bd1f 9d3d
000001f0: 4c86 0b3c 4511 3c3d f88a ce3c c57b 963d
00000200: e7d0 8f3d 393c 94bd 8f94 6f3d 998b c53c
00000210: 80a6 09bd 809c 993d 2201 963d a627 86bd
00000220: a31d a33d 2440 873b 06ec 803d 7200 5b3d
00000230: c93c 91bd 381d 4e3d ca09 753d 8e81 9bbd
00000240: 9d5c cdba 7a2b 553d ae05 ae3c 2b18 82bc
00000250: 505f 47bc cfb4 9a3c f76c 533d a342 6f3d
00000260: 234b debc 5093 e03c c049 233b edb3 043c
00000270: 9231 90bd 0993 b6bd d799 9abc 3d1e 8dbc
00000280: 89d8 25bc 225e 3e3d 7cce b03c 3652 933d
00000290: 7007 9a3d f452 8d3d 6b85 383c 3b86 a83d
000002a0: f767 2d3d d022 6fbd e2d8 adbc 08e4 a93d
000002b0: 307e 3bbc cda1 9d3d dea6 6c3d d3ee fe3c
000002c0: 87bb 3a3d 4fe8 5fbd 948d b8bc 8121 49bd
000002d0: 0246 7abd 663b a7bd bc06 3cbd 2213 7dbb
000002e0: 6036 a3bd ae05 9d3d 155e b83c d57d d9bc
000002f0: e9e6 693d 2275 a2bd a26a 473d e2ed ef3c
00000300: 6437 11bb ab57 3f3d dcf6 98bd 8ed4 22bd
00000310: aac3 32bd 0025 02bd e2e8 38bd a1f1 84bd
00000320: 5ffe bc3b 0e86 4abc dd70 723d 2751 afbd
00000330: ffaf b83c 0865 a2bd 2d85 2ebd 918d 31bd
00000340: 162c 6dbd ae18 433d 4899 febc a60f b0bd
00000350: 92db 4f3c 2c0e 98bc 8da1 ac3d dc9a 8c3d
00000360: 496b 953c 90ad 8dbd 7f6e 40bd b48f 793d
00000370: 5d4b 0f3d 0aee 2c3b a704 adbd 7fb1 a03d
00000380: fbdb 0a3d a9fb 543d ace5 bebb 8a76 003d
00000390: c1d6 613d 58ea 623d f47b acbd 8204 8fbc
000003a0: f81d a83d 7778 a23b 5d22 9fbc f1fe a9bd
000003b0: 32c0 87bd 1463 08bd 205c b73b ab30 e1bc
000003c0: 8101 a7bd dc34 863d fef6 b03d b304 2a3d
000003d0: 0c95 1b3d 39f8 a53d 3012 6abd 694b 90bd
000003e0: c265 a53d 8c84 543c d18d 103c 35cb 4f3b
000003f0: d081 323d 5c7c 47bc 8c0d 4f3d a932 d8bc

rnn.bias_ih_l0 f4 [128]
0.011914016 -0.06128749 0.068703085 0.070795335 0.00048128096 -0.027450567 -0.026391735 -0.019970397
-0.081287704 0.08261221 -0.07487527 0.08249441 0.041428693 -0.00035704346 -0.04198722 -0.019301556
-0.038421374 0.08186348 0.06987095 -0.034272652 -0.065480545 0.027082715 0.0109740365 -0.037992816
-0.042678777 0.033837873 -0.075867474 -0.07824972 0.058343336 -0.043847676 -0.055772252 -0.08124931
0.035744566 -0.05901989 0.023442006 -0.023400376 -0.014519151 -0.04570978 -0.012145964 -0.0036633105
0.032520648 -0.07878697 -0.052688558 0.0493623 -0.04662903 -0.04371779 -0.006411728 0.07710738
-0.07426206 0.08627232 0.0011005232 -0.004968688 0.06981385 0.017516628 -0.04249281 0.060796235
-0.05619912 -0.005048349 -0.062096853 -0.030033976 0.017540164 -0.0386948 -0.0030598745 0.05090976
-0.07373573 0.01619206 0.04944429 -0.032050762 -0.0057547027 0.057600748 -0.02071786 0.005090305
0.07349367 0.056638807 0.08243275 -0.0057352604 0.0021223533 0.039145354 -0.02112349 -0.007360367
-0.061060347 -0.01916565 0.030859608 0.03047904 0.07099152 -0.007871561 0.01811016 -0.0023408171
-0.08818108 -0.038147762 -0.031319205 0.034808226 0.063793756 0.009619093 -0.029016271 -0.045771044
-0.066670954 -0.06055599 -0.050472766 -0.0692009 0.03137422 -0.083659515 -0.053274333 -0.025683964
-0.067672916 -0.050427977 0.026503451 0.05465378 0.061350483 -0.068811215 0.074252285 -0.06362554
-0.0036451044 -0.045613654 -0.009019719 0.027104687 -0.052380662 -0.0062521975 -0.07092005 0.006484432
-0.04003484 0.048692178 0.05428557 -0.014366428 -0.06648636 0.01531057 -0.024667138 0.08792347
00000000: 0133 433c 9708 7bbd 34b4 8c3d 25fd 903d
00000010: 7054 fc39 03e0 e0bc 7b33 d8bc f598 a3bc
00000020: 2b7a a6bd 9730 a93d 3558 99bd d4f2 a83d
00000030: 22b1 293d 9031 bbb9 cbfa 2bbd 4c1e 9ebc
00000040: bb5f 1dbd 0aa8 a73d 8018 8f3d 7b61 0cbd
00000050: aa1a 86bd 92dc dd3c 72cc 333c 5b9e 1bbd
00000060: f1cf 2ebd 9599 0a3d 6860 9bbd 6441 a0bd
00000070: 6cf9 6e3d 9f99 33bd 7271 64bd 0a66 a6bd
00000080: e568 123d d7be 71bd 7309 c03c 25b2 bfbc
00000090: bce1 6dbc 2e3a 3bbd deff 46bc 2714 70bb
000000a0: 5f34 053d 105b a1bd f5cf 57bd 2030 4a3d
000000b0: 15fe 3ebd 6d11 33bd 7919 d2bb 79ea 9d3d
000000c0: b516 98bd 8baf b03d 6e3f 903a 60d0 a2bb
000000d0: 90fa 8e3d 087f 8f3c f10c 2ebd 7905 793d
000000e0: 0c31 66bd 9f6c a5bb 4559 7ebd d009 f6bc
000000f0: 64b0 8f3c 707e 1ebd 2d88 48bb c186 503d
00000100: c202 97bd 36a5 843c 1986 4a3d a947 03bd
00000110: f291 bcbb c3ee 6b3d 80b8 a9bc 93cc a63b
00000120: d983 963d 18fe 673d 80d2 a83d daee bbbb
00000130: 2e17 0b3b e156 203d 2b0b adbc 3c2f f1bb
00000140: 6a1a 7abd 4801 9dbc 4acd fc3c 2eaf f93c
00000150: 0164 913d b8f7 00bc c25b 943c 6568 19bb
00000160: 4898 b4bd d440 1cbd 9148 00bd 1293 0e3d
00000170: 4da6 823d 6699 1d3c 88b3 edbc 6b7a 3bbd
00000180: c88a 88bd 8f09 78bd 88bc 4ebd 34b9 8dbd
00000190: 4182 003d ae55 abbd 3036 5abd 2d67 d2bc
000001a0: 1998 8abd 918d 4ebd c41d d93c a4dc 5f3d
000001b0: a54a 7b3d e5ec 8cbd 9511 983d 1b4e 82bd
000001c0: b4e2 6ebb 62d5 3abd 72c7 13bc a60a de3c
000001d0: 1b8d 56bd 3cdf ccbb 883e 91bd 5c7b d43b
000001e0: 93fb 23bd 7371 473d 8c5a 5e3d 2b61 6bbc
000001f0: 002a 88bd 2fd9 7a3c bd12 cabc 3811 b43d

rnn.bias_hh_l0 f4 [128]
0.046931166 0.00093835575 0.015147924 0.025833786 -0.043799914 -0.085711814 -0.069334075 -0.02655555
-0.07178913 0.0280576 -0.07002813 0.07781792 0.01156594 -0.00024655595 0.05247944 0.030042473
0.074842714 -0.011320433 0.075436674 0.083049275 0.049626738 -0.058889765 -0.017642006 0.03327607
0.059875038 0.054604854 0.04840674 -0.07707221 0.060397595 0.083231874 -0.033631247 0.08011002
-0.03513463 -0.07389913 -0.07088782 -0.08194012 0.056432925 -0.052146036 -0.046098705 -0.03286261
0.007124508 -0.07422387 0.046761148 0.03678137 0.085785486 0.04045447 -0.06444157 -0.076714985
0.07889635 0.073735364 0.0338829 0.057896353 0.032784395 0.0033508744 -0.08648022 -0.047391295
0.011620028 0.08577504 0.051161084 -0.057320543 0.021337721 -0.05290831 -0.07201119 0.06673083
-0.08733465 0.04408029 -0.011314062 -0.027972696 -0.07319279 -0.06343941 0.03602816 0.015079985
-0.013619378 -0.031214332 0.05675549 -0.052428342 0.012118392 -0.070622355 0.0077508204 -0.075009115
0.08014752 0.05550604 -0.035189737 0.058650397 -0.06066722 -0.082997896 0.040422693 0.0112142
-0.07578613 0.07937249 0.0045157326 0.0329848 0.01633938 -0.051940136 -0.054301545 -0.00045959285
-0.0302216 -0.019220153 0.024526022 -0.040535737 -0.015627535 0.084577724 0.06894463 -0.02336159
0.0059857527 -0.04126533 0.014923197 0.06278049 -0.087434985 -0.05055348 0.07012452 -0.060253043
-0.0030449098 0.048345145 -0.042182732 -0.027839681 -0.054420732 0.002210556 0.071187384 -0.021756686
-0.031142833 0.010785354 0.070821464 -0.014795163 -0.026847564 -0.05352183 0.06253305 -0.0323235
00000000: e53a 403d fdfb 753a 002f 783c 60a1 d33c
00000010: 8a67 33bd ad89 afbd 06ff 8dbd 068b d9bc
00000020: 2e06 93bd 0dd9 e53c e96a 8fbd 005f 9f3d
00000030: 127f 3d3c 2e44 81b9 aef4 563d a21b f63c
00000040: 2347 993d 5679 39bc 8b7e 9a3d bd15 aa3d
00000050: 6845 4b3d 6536 71bd f885 90bc 7d4c 083d
00000060: 873f 753d 57a9 5f3d 2546 463d 09d8 9dbd
00000070: 7863 773d 7975 aa3d ebc0 09bd b910 a43d
00000080: 54e9 0fbd 6d58 97bd a22d 91bd 39d0 a7bd
00000090: 3626 673d 1597 55bd ffd1 3cbd f29a 06bd
000000a0: b474 e93b af02 98bd 9e88 3f3d 10a8 163d
000000b0: 4db0 af3d 96b3 253d f1f9 83bd bf1c 9dbd
000000c0: 6994 a13d 9102 973d ccc8 0a3d ba24 6d3d
000000d0: ee48 063d 589a 5b3b 8b1c b1bd 601d 42bd
000000e0: ee61 3e3c d3aa af3d 498e 513d f2c8 6abd
000000f0: 72cc ae3c 62b6 58bd 9a7a 93bd 2caa 883d
00000100: 82dc b2bd 898d 343d 9e5e 39bc ff26 e5bc
00000110: 1ae6 95bd 85ec 81bd 4492 133d 0b12 773c
00000120: d023 5fbc 33b5 ffbc 7278 683d 1abf 56bd
00000130: 388c 463c 74a2 90bd 98fa fd3b 619e 99bd
00000140: 6224 a43d 4d5a 633d 1d23 10bd 663b 703d
00000150: 317e 78bd cdfa a9bd 4492 253d c4bb 373c
00000160: c235 9bbd 0b8e a23d b6f8 933b 121b 073d
00000170: 2ada 853c 2ebf 54bd 4c6b 5ebd 82f5 f0b9
00000180: 4a93 f7bc 9573 9dbc ccea c83c cd08 26bd
00000190: 5105 80bc 1637 ad3d d832 8d3d ce60 bfbc
000001a0: 2224 c43b d605 29bd 6d80 743c 0f93 803d
000001b0: 1d11 b3bd 2a11 4fbd 729d 8f3d e5cb 76bd
000001c0: 1c8d 47bb 8f05 463d cdc7 2cbd 0b10 e4bc
000001d0: 46e8 5ebd fade 103b b1ca 913d 143b b2bc
000001e0: 411f ffbc 0eb5 303c d80a 913d 6967 72bc
000001f0: 6cef dbbc b539 5bbd 5411 803d a565 04bd

rnn.weight_ih_l1 f4 [128, 128]
-0.05271887 -0.05930616 0.036118265 0.020023797 0.05558369 0.009232805 -0.037569545 -0.07436574
0.04943225 -0.05487229 0.07667751 0.071211256 -0.06626868 0.06839063 -0.0590293 -0.033032585
-0.05066901 0.014449226 0.05696763 0.03662711 -0.026784254 -0.028778646 0.060944933 0.06376547
0.058272187 0.046355013 -0.07220816 -0.04946993 0.014988203 0.04825361 0.06555376 -0.020424966
0.0700715 -0.03376643 0.087496884 0.046350416 0.06364817 0.07558171 0.012914889 -0.021132587
0.08501721 -0.088229105 0.027149767 0.044776455 -0.05989354 -0.028566536 -0.033168674 -0.007013043
-0.050699443 0.0028967923 -0.05868418 -0.026334975 0.049209025 -0.061181817 0.034682598 -0.01642695
0.018461505 0.012978259 0.07666612 -0.038236506 0.08474819 0.078706145 0.0032844867 -0.07281347
-0.04384942 -0.032199807 0.0027682257 0.036771834 0.011329543 -0.04628898 0.004433959 -0.08082279
0.03532861 -0.07507813 -0.083998315 -0.020048942 0.07016414 0.044165853 -0.06293581 -0.07655462
-0.03516529 0.035331156 -0.08191163 -0.03542997 0.00010161783 0.04452897 -0.0072897933 -0.049916737
0.057943523 0.08472099 0.08137542 -0.025609965 0.028358651 -0.03147208 -0.056156285 -0.057159413
-0.068554364 0.028397594 0.008395079 -0.04543985 -0.07783428 0.00833936 0.04073823 0.08876976
-0.06626786 0.012722972 -0.050355937 -0.05094949 0.051992513 0.044304807 -0.010105232 -0.0632725
0.020723742 0.05034924 -0.024145639 -0.048325703 0.041392345 -0.08137104 -0.07475862 -0.04604049
-0.064250246 -0.07604834 -0.041901767 0.06942918 0.07252059 -0.08784125 0.026632588 -0.008535429
0.028433941 -0.008943321 0.06819459 0.08566756 0.0364956 -0.08022148 0.039850816 0.06373678
-0.05088552 -0.085537426 0.021105554 0.059910577 -0.036103178 0.07114241 0.028058184 0.009099426
-0.039541855 -0.03561937 -0.076983966 -0.0850828 0.03997566 -0.046683982 0.053895354 0.07957136
-0.042928856 0.033784483 0.004523893 0.06045669 0.0868565 0.01938778 -0.010732465 0.07256275
0.07736386 0.06811924 -0.060903758 0.063146636 0.011859085 0.06796372 0.017966826 -0.07500745
0.044349555 -0.00917747 -0.0841644 0.06937172 -0.060122654 -0.014029351 -0.018818475 0.07696324
0.0615417 -0.03355115 -0.053141654 -0.0235305 0.056370623 -0.01904794 -0.011258623 -0.050481137
0.020529125 -0.034473665 -0.010647041 -0.0613596 -0.08307924 0.01934684 -0.022125265 -0.04796254
0.021587728 0.047211096 0.03959275 0.020148318 -0.058859542 0.04299354 -0.014717061 -0.01685221
-0.014184358 -0.07249905 -0.057760987 0.077759415 -0.0018214395 -0.038555767 0.019870978 -0.018079663
0.0423743 0.024214748 0.0071420157 0.056245405 -0.0033294256 0.06586926 -0.049556788 -0.0067880866
-0.08275478 -0.064475074 -0.07476073 -0.08623968 0.067107506 -0.03782914 0.056788255 0.06592786
0.031347107 0.0518158 -0.034070905 0.022661153 -0.07194083 0.06605985 0.07381096 -0.014816097
0.050452117 0.041585755 -0.024416361 0.017305646 0.0148611395 -0.041797433 -0.058878154 -0.024865944
0.002494393 -0.068697125 -0.04025706 0.082372546 0.055566136 -0.08536761 0.08352107 -0.07041805
0.03602206 -0.07770973 -0.0367104 0.03233683 0.037211534 -0.064811364 0.07678904 -0.030457404
00000000: beef 57bd 04eb 72bd bff0 133d f208 a43c
00000010: b9ab 633d 3145 173c 86e2 19bd 114d 98bd
00000020: 7979 4a3d c4c1 60bd 1909 9d3d 35d7 913d
00000030: e0b7 87bd 6310 8c3d b5c8 71bd 2d4d 07bd
00000040: 4f8a 4fbd 72bc 6c3c e456 693d 4f06 163d
00000050: a76a dbbc 32c1 ebbc 65a1 793d 7997 823d
00000060: d1ae 6e3d c1de 3d3d dfe1 93bd fba0 4abd
00000070: 1491 753c 94a5 453d 0d41 863d 4252 a7bc
00000080: a681 8f3d ab4e 0abd 9131 b33d efd9 3d3d
00000090: f959 823d 95ca 9a3d f898 533c 3f1e adbc
000000a0: 811d ae3d 76b1 b4bd 3069 de3c 8467 373d
000000b0: ee52 75bd 5e04 eabc e0db 07bd abcd e5bb
000000c0: 38aa 4fbd 1cd8 3d3b d35e 70bd 72bc d7bc
000000d0: 678f 493d c999 7abd 570f 0e3d d091 86bc
000000e0: 953c 973c c3a2 543c 2003 9d3d e29d 1cbd
000000f0: 7690 ad3d b030 a13d 8b40 573b 3b1f 95bd
00000100: 739b 33bd f2e3 03bd 1f6b 353b 109e 163d
00000110: 8c9f 393c 8399 3dbd be4a 913b 6b86 a5bd
00000120: bcb4 103d 90c2 99bd 4f07 acbd ae3d a4bc
00000130: 37b2 8f3d 41e7 343d 7de4 80bd abc8 9cbd
00000140: 7b09 10bd 67b7 103d 49c1 a7bd 041f 11bd
00000150: a81b d538 0264 363d 38df eebb 7e75 4cbd
00000160: 3056 6d3d 3382 ad3d 28a8 a63d fdcb d1bc
00000170: 6750 e83c dee8 00bd 2204 66bd fd1f 6abd
00000180: 3b66 8cbd 12a2 e83c 838b 093c 231f 3abd
00000190: 9467 9fbd d0a1 083c 21dd 263d eccc b53d
000001a0: 72b7 87bd 0374 503c 0742 4ebd 6ab0 50bd
000001b0: 1af6 543d f578 353d 6a90 25bc 0395 81bd
000001c0: d6c4 a93c 013b 4e3d 13cd c5bc 2cf1 45bd
000001d0: 058b 293d dca5 a6bd 0c1b 99bd f494 3cbd
000001e0: a295 83bd 3bbf 9bbd 30a1 2bbd e330 8e3d
000001f0: ad85 943d 1de6 b3bd 962c da3c 2fd8 0bbc
00000200: 4cee e83c 0287 12bc 9ba9 8b3d 7972 af3d
00000210: 697c 153d 294b a4bd 9c3a 233d 6e88 823d
00000220: 566d 50bd 3f2e afbd 8ee5 ac3c cb64 753d
00000230: ede0 13bd 1db3 913d 47da e53c c215 153c
00000240: a4f6 21bd 9ee5 11bd c5a9 9dbd e43f aebd
00000250: 85bd 233d b437 3fbd 60c1 5c3d 4ff6 a23d
00000260: 2bd6 2fbd 9961 0a3d 2a3d 943b 6fa1 773d
00000270: d2e1 b13d 1fd3 9e3c 39d7 2fbc c79b 943d
00000280: f270 9e3d 1a82 8b3d 3876 79bd 0653 813d
00000290: 9c4c 423c 9030 8b3d 2a2f 933c 829d 99bd
000002a0: e1a7 353d 195d 16bc 635e acbd c312 8e3d
000002b0: 2c43 76bd 5ddb 65bc 3429 9abc e79e 9d3d
000002c0: 2613 7c3d ee6c 09bd 10ab 59bd 09c3 c0bc
000002d0: e2e4 663d 6d0a 9cbc 1676 38bc 4fc5 4ebd
000002e0: b22c a83c 4234 0dbd ed70 2ebc 3454 7bbd
000002f0: 7325 aabd 447d 9e3c 0b40 b5bc 5e74 44bd
00000300: bfd8 b03c 6c60 413d 022c 223d 160e a53c
00000310: b416 71bd ff19 303d d41f 71bc a50d 8abc
00000320: 8265 68bc 627a 94bd c996 6cbd 5440 9f3d
00000330: 5ebd eeba a7ec 1dbd 76c8 a23c cd1b 94bc
00000340: ad90 2d3d 025e c63c 9207 ea3b 9561 663d
00000350: 7e32 5abb 76e6 863d 0ffc 4abd 996e debb
00000360: 577b a9bd 820b 84bd 271c 99bd 6e9e b0bd
00000370: a96f 893d baf2 1abd cd9a 683d 3005 873d
00000380: d365 003d ce3c 543d ef8d 0bbd e2a3 b93c
00000390: b755 93bd 634a 873d 332a 973d 37bf 72bc
000003a0: e1a6 4e3d d355 2a3d d204 c8bc 92c4 8d3c
000003b0: 237c 733c c933 2bbd 382a 71bd aab3 cbbc
000003c0: f878 233b 14b1 8cbd 96e4 24bd f0b2 a83d
000003d0: 5199 633d 37d5 aebd 180d ab3d 5737 90bd
000003e0: de8b 133d 4726 9fbd a55d 16bd a073 043d
000003f0: 1f6b 183d d2bb 84bd 9243 9d3d ce81 f9bc

rnn.weight_hh_l1 f4 [128, 128]
0.052039564 0.00952009 -0.030689582 0.0179873 0.07008585 0.021287855 -0.082373455 0.017774245
0.045836598 0.03146164 0.03501939 0.008720087 -0.0251598 0.078145936 0.015396094 -0.038515687
0.01700335 0.07842695 0.03821091 0.045414466 0.05513045 -0.057520024 0.0069149686 -0.00041017507
-0.039728563 -0.05761697 -0.073882766 0.08373582 -0.053905983 0.05721767 0.034210123 -0.07185202
0.058917962 0.04743941 -0.000382417 0.0362091 -0.052514892 0.040467612 0.026271336 -0.082145475
0.06803719 0.0167799 -0.06532947 -0.049191404 -0.05710152 -0.02061564 0.065660655 -0.046495758
-0.07756781 0.035948757 0.051781256 -0.077409096 -0.08736182 0.04678593 -0.0054109506 0.032836247
0.0382707 -0.019305024 -0.04299655 -0.057700805 0.010914839 0.044031266 -0.07101743 -0.061466187
-0.014116895 0.026238633 -0.05276989 0.06553762 0.050205275 -0.04050574 0.05398555 0.04710262
-0.04224105 0.03965201 -0.004002218 0.008897536 0.04067971 -0.018627597 -0.023545606 0.058391523
-0.04306726 -0.025625532 0.08420094 -0.04023371 0.07384709 -0.04550735 0.0077343616 -0.08240008
-0.05150266 -0.08120777 0.037235588 -0.068435416 0.082225144 0.03146761 0.062300127 -0.067721196
0.009412459 0.06816116 -0.08733464 0.07759723 0.008597573 -0.047402535 0.0042641307 -0.06388351
-0.07994149 0.0100445915 0.08670141 0.08200674 0.016681733 0.08231431 -0.035735726 -0.06976143
0.0034680546 0.0695552 0.058397558 0.044898443 0.054788142 0.030476768 -0.0034922652 0.016960382
0.054328706 0.0740759 0.05607715 0.047466516 -0.029366713 0.07822665 -0.025198232 0.08114218
-0.0069940127 0.010344178 0.065979384 -0.061305664 0.07189685 0.06298133 0.07243199 -0.06479651
-0.050221037 0.06299434 0.022282999 0.080367684 0.04806964 -0.025939727 -0.056047272 -0.04379606
-0.037725013 0.04413729 -0.016681561 -0.02942944 -0.0011843683 -0.0023028604 -0.058531396 -0.011019109
0.070805 -0.08404485 0.0037059812 0.010277025 0.065775394 -0.06293489 -0.01542923 0.008111187
-0.07004839 -0.05937344 -0.086380094 -0.013404744 0.017008355 0.020130929 -0.036820486 0.07527757
-0.066467844 0.057436567 -0.028789537 0.010632788 -0.011634556 -0.036244906 -0.0849733 -0.029979724
0.023791388 0.055939693 0.04913432 -0.07635479 -0.05157185 -0.07933816 0.05057083 0.017334228
-0.025631772 -0.011579885 -0.015581702 -0.062433533 -0.00777564 -0.01248312 0.058225077 -0.079466246
-0.0072459215 0.04383595 0.009390797 -0.036901552 0.05813946 -0.029075079 -0.07918243 -0.03814194
0.033825982 0.06555951 -0.085955516 0.03609192 0.03840735 -0.003198086 0.085702024 0.03352839
0.0067011416 -0.06980862 0.01474858 0.06213939 -0.073783636 -0.013290424 -0.035714824 0.08277151
0.019386996 -0.0006494871 0.065446846 0.03345769 -0.01664003 -0.0078131985 -0.019389577 -0.038070932
0.04584318 0.011397886 0.049521457 -0.080156 -0.015488045 0.033665802 -0.0055704927 0.018724374
0.018602602 -0.06857228 -0.059939016 0.068407655 -0.07642198 0.052229222 -0.08005271 0.080928124
0.016964471 0.007260967 0.08042747 -0.064605504 0.020380901 -0.047348958 -0.05607916 0.07164165
-0.023631634 0.077130266 0.038606778 0.048809614 0.0669505 0.006332003 0.03131038 -0.047773067
00000000: 7027 553d 27fa 1b3c b868 fbbc 1a5a 933c
00000010: 2c89 8f3d de63 ae3c 6ab3 a8bd 4b9b 913c
00000020: 28bf 3b3d ecdd 003d 7e70 0f3d b2de 0e3c
00000030: ed1b cebc fa0a a03d e63f 7c3c a0c2 1dbd
00000040: 9c4a 8b3c 4f9e a03d 0b83 1c3d 8504 3a3d
00000050: 77d0 613d 1e9a 6bbd f696 e23b c40c d7b9
00000060: 6bba 22bd c6ff 6bbd d94f 97bd b07d ab3d
00000070: 85cc 5cbd 135d 6a3d ea1f 0c3d 2727 93bd
00000080: f653 713d d44f 423d 247f c8b9 fe4f 143d
00000090: db19 57bd 5ec1 253d fc36 d73c e33b a8bd
000000a0: 1557 8b3d 0076 893c 75cb 85bd ed7c 49bd
000000b0: 49e3 69bd 21e2 a8bc 1879 863d 5672 3ebd
000000c0: dfdb 9ebd 013f 133d 9518 543d a988 9ebd
000000d0: c1ea b2bd 9aa2 3f3d 584e b1bb 4d7f 063d
000000e0: bdc1 1c3d 9225 9ebc 271d 30bd ae57 6cbd
000000f0: 27d4 323c 215a 343d 9671 91bd f8c3 7bbd
00000100: 8d4a 67bc 67f2 d63c 3d25 58bd 9638 863d
00000110: 0ca4 4d3d 59e9 25bd f41f 5d3d adee 403d
00000120: f404 2dbd 256a 223d 0a25 83bb f9c6 113c
00000130: c59f 263d e798 98bc b7e2 c0bc f32b 6f3d
00000140: 4c67 30bd a3ec d1bc 8b71 ac3d 1acc 24bd
00000150: 253d 973d ea65 3abd 8770 fd3b 60c1 a8bd
00000160: 74f4 52bd 4250 a6bd 5884 183d de27 8cbd
00000170: a865 a83d 2ee4 003d 6b2e 7f3d 69b1 8abd
00000180: b736 1a3c 1498 8b3d 81dc b2bd 4ceb 9e3d
00000190: d6dc 0c3c 2929 42bd 1fba 8b3b 5cd5 82bd
000001a0: 5db8 a3bd 1292 243c 8290 b13d 26f3 a73d
000001b0: 21a8 883c 6894 a83d a05f 12bd 15df 8ebd
000001c0: 4d48 633b f572 8e3d 4732 6f3d 6ee7 373d
000001d0: 8869 603d 6aaa f93c 7dde 64bb 80f0 8a3c
000001e0: c787 5e3d 1bb5 973d 27b1 653d 406c 423d
000001f0: 7692 f0bc 4b35 a03d 866c cebc df2d a63d
00000200: 082e e5bb a17a 293c 3320 873d a61b 7bbd
00000210: a83e 933d 5bfc 803d 3957 943d 08b4 84bd
00000220: 93b4 4dbd 2d03 813d d68a b63c d097 a43d
00000230: ace4 443d 8d7f d4bc d391 65bd 7f63 33bd
00000240: 8b85 1abd 4ec9 343d c5a7 88bc 0216 f1bc
00000250: ce3c 9bba 96eb 16bb 9ebe 6fbd 7e89 34bc
00000260: 3602 913d b51f acbd 0ce0 723b f860 283c
00000270: 40b5 863d 02e4 80bd e2ca 7cbc c9e4 043c
00000280: 8875 8fbd 9031 73bd 0ce8 b0bd 929f 5bbc
00000290: 1b55 8b3c 9ee9 a43c 14d1 16bd 202b 9a3d
000002a0: 4b20 88bd 9b42 6b3d 09d8 ebbc 2535 2e3c
000002b0: dd9e 3ebc 8a75 14bd 7b06 aebd 0a98 f5bc
000002c0: 28e6 c23c 0521 653d 1241 493d e65f 9cbd
000002d0: 013d 53bd 0c7c a2bd 5c23 4f3d 8300 8e3c
000002e0: b9f9 d1bc 8fb9 3dbc 654a 7fbc 4eba 7fbd
000002f0: ccca febb 0086 4cbc 6b7d 6e3d 33bf a2bd
00000300: 326f edbb 538d 333d dbdb 193c 1526 17bd
00000310: a423 6e3d dc2e eebc 662a a2bd b93a 1cbd
00000320: 1d8d 0a3d 1044 863d 7209 b0bd 1fd5 133d
00000330: 0751 1d3d fb96 51bb 8b84 af3d 1155 093d
00000340: 4095 db3b d2f7 8ebd 07a4 713c df85 7e3d
00000350: e01b 97bd 14c0 59bc b549 12bd 1c84 a93d
00000360: 7ad1 9e3c 5742 2aba ff08 863d ee0a 093d
00000370: ac50 88bc ee02 00bc e4d6 9ebc 44f0 1bbd
00000380: 0fc6 3b3d 33be 3a3c 03d7 4a3d d428 a4bd
00000390: 92c1 7dbc 27e5 093d ae88 b6bb dc63 993c
000003a0: 7c64 983c a06f 8cbd 9d82 75bd 5019 8c3d
000003b0: 2183 9cbd 4fee 553d adf2 a3bd a5bd a53d
000003c0: 13f9 8a3c 68ed ed3b 28b7 a43d e44f 84bd
000003d0: d9f5 a63c fbf0 41bd 43b3 65bd dbb8 923d
000003e0: 2197 c1bc 79f6 9d3d 2422 1e3d 97ec 473d
000003f0: 581d 893d b17c cf3b 503f 003d b1ad 43bd

rnn.bias_ih_l1 f4 [128]
-0.06013942 -0.03604751 0.011541466 -0.009772999 -0.040753577 -0.076654136 0.010816596 -0.04092088
-0.087242566 -0.030265868 0.021662533 -0.0334695 0.06347926 0.061462745 0.04047339 -0.06287711
-0.017462907 0.028682316 0.0057140864 -0.06600251 0.056939386 0.011169079 -0.051282328 0.044299908
0.033268414 -0.047365583 -0.08563045 0.04889463 -0.005345856 0.06553501 0.03692854 0.03652882
-0.030832382 0.07031217 0.031884007 0.044926908 -0.045548208 0.023265691 -0.047926463 -0.042065468
0.040023807 0.08549235 0.033727184 0.07348028 -0.07627008 0.04563418 -0.0072303377 0.025545845
-0.03971453 -0.009104603 0.017518405 0.08650274 -0.022232251 -0.005055004 0.029725924 0.0024999273
0.060094506 -0.055480357 0.08388551 0.0015084976 -0.056128323 -0.06887598 0.031976596 0.05710891
-0.03708818 0.07022688 0.067452826 -0.06461922 0.030571055 -0.0093776295 -0.03423146 -0.015267085
-0.085175894 -0.059941832 0.057579186 0.04339322 -0.07370602 0.027178615 -0.0734423 -0.08374703
-0.051524073 0.04948445 -0.06487607 0.027911825 0.008041724 -0.07720749 0.03849144 -0.079313494
0.005751588 0.020224834 0.024843968 0.01448496 0.079591945 -0.029408159 -0.013702042 0.058948178
0.0023754146 0.04344011 -0.04125058 -0.071017586 0.06536132 0.022854181 0.017787257 0.016248338
4.9554626e-05 0.023348924 -0.08705211 -0.009257813 -0.0030260414 -0.07279383 -0.045006197 -0.028301405
-0.016745301 -0.01849986 0.040805787 -0.03933356 -0.05926478 0.062888406 -0.054044466 0.067759566
-0.05392531 0.06440176 0.07030417 -0.04875562 -0.0052707377 0.042797994 -0.031403262 0.08151634
00000000: c154 76bd 8ea6 13bd 6b18 3d3c ee1e 20bc
00000010: 39ed 26bd d8fc 9cbd 1838 313c a79c 27bd
00000020: 3bac b2bd 20f0 f7bc a075 b13c 5017 09bd
00000030: 6a01 823d 5cc0 7b3d 6dc7 253d b7c5 80bd
00000040: 5f0e 8fbc 2df7 ea3c 3b3d bb3b 532c 87bd
00000050: 4639 693d 83fe 363c 6b0d 52bd d273 353d
00000060: 7644 083d 6a02 42bd 045f afbd bc45 483d
00000070: 4a2c afbb 3837 863d 6142 173d 3e9f 153d
00000080: 3194 fcbc d4ff 8f3d ce98 023d 4705 383d
00000090: c290 3abd b197 be3c 8a4e 44bd d74c 2cbd
000000a0: 01f0 233d 9d16 af3d 8425 0a3d d47c 963d
000000b0: 7d33 9cbd e8ea 3a3d 78ec ecbb 8545 d13c
000000c0: b4ab 22bd 792b 15bc c282 8f3c 5928 b13d
000000d0: 6920 b6bc 72a4 a5bb c883 f33c d2d5 233b
000000e0: a825 763d 5f3f 63bd 2bcc ab3d c8b8 c53a
000000f0: d0e6 65bd da0e 8dbd e4f9 023d 08eb 693d
00000100: c7e9 17bd 1cd3 8f3d b524 8a3d 1557 84bd
00000110: 2670 fa3c a1a4 19bc 4a36 0cbd cc22 7abc
00000120: b370 aebd 9185 75bd 27d8 6b3d 17bd 313d
00000130: 2ff3 96bd b0a5 de3c eb68 96bd 9083 abbd
00000140: e80a 53bd 35b0 4a3d bfdd 84bd 57a7 e43c
00000150: 6fc1 033c f61e 9ebd 33a9 1d3d 1d6f a2bd
00000160: d177 bc3b 8dae a53c 9485 cb3c 5352 6d3c
00000170: 1a01 a33d 61e9 f0bc 887e 60bc a573 713d
00000180: d8ac 1b3b 42ee 313d 5ef6 28bd ab71 91bd
00000190: 28dc 853d b138 bb3c 95b6 913c 3c1b 853c
000001a0: e0d8 4f38 3e46 bf3c 6048 b2bd 15ae 17bc
000001b0: 8d50 46bb ee14 95bd 6b58 38bd 59d8 e7bc
000001c0: 712d 89bc 058d 97bc f823 273d 3a1c 21bd
000001d0: a0bf 72bd a3cb 803d bb5d 5dbd 87c5 8a3d
000001e0: c9e0 5cbd 12e5 833d a2fb 8f3d f9b3 47bd
000001f0: 27b6 acbb f34c 2f3d b5a0 00bd 0af2 a63d

rnn.bias_hh_l1 f4 [128]
0.054299027 -0.059520137 0.04069621 -0.044516873 -0.07730919 -0.012713794 -0.06650793 -0.07101195
0.062128328 -0.025902055 0.08176397 0.03866417 0.04501982 -0.031791728 0.0024175206 -0.08710109
-0.08185579 0.04174911 0.03579427 -0.043157145 0.06902754 0.038265523 -0.01593936 -0.043760125
0.042876452 0.06944515 -0.07623026 0.052130833 -0.048779305 -0.08192502 -0.019803027 -0.08196447
-0.010315241 -0.020828655 0.059919614 0.0026108832 0.008015439 -0.025764443 0.08279367 -0.034096446
-0.056076188 -0.028573079 0.03563844 0.045600444 0.04070107 -0.06971458 0.03331227 0.046482004
-0.004920724 0.07719606 0.04713919 -0.079858534 -0.0580996 0.010369784 -0.05902567 -0.077803664
-0.07643195 -0.01335275 -0.08450871 0.04420848 0.038842782 -0.076231904 0.08277139 0.06295254
-0.070516706 -0.03445766 -0.06963676 -0.04743838 -0.053422682 -0.003512168 0.0043571535 -0.04341351
-0.0271435 -0.07195254 -0.021405838 0.0856893 0.0016416106 -0.029596582 -0.06905107 0.02531367
-0.010842486 0.041901864 -0.08149606 -0.034653135 0.015440434 -0.059545115 0.01322764 0.05231799
-0.036866892 -0.060460553 -0.06387487 0.023824992 -0.06428794 0.050687067 -0.030002208 -0.003579576
-0.075566694 0.051758345 -0.06065748 0.033869397 -0.0314272 0.039639585 0.032854013 0.07635585
-0.0072795763 -0.08246934 -0.05697611 -0.08830593 -0.0035062935 -0.016489837 0.08273752 -0.08536902
0.05784461 -0.04546457 -0.07625468 -0.077693954 -0.0798306 -0.03632102 -0.083485655 0.004765861
-0.0027895304 -0.072152495 0.026583716 0.024231238 -0.056037888 -0.027261596 0.06739072 0.021528222
00000000: a868 5e3d 63cb 73bd 12b1 263d 5357 36bd
00000010: 4854 9ebd 844d 50bc 4f35 88bd b76e 91bd
00000020: 467a 7e3d 8c30 d4bc de73 a73d 525e 1e3d
00000030: b466 383d 0b38 02bd 446f 1e3b 0e62 b2bd
00000040: 02a4 a7bd 1d01 2b3d 039d 123d 8cc5 30bd
00000050: 505e 8d3d 4fbc 1c3d 4393 82bc d13d 33bd
00000060: 389f 2f3d 4239 8e3d 9c1e 9cbd 2487 553d
00000070: cfcc 47bd 4ec8 a7bd f539 a2bc fddc a7bd
00000080: 4201 29bc dba0 aabc 456e 753d 5a1b 2b3b
00000090: 3053 033c f40f d3bc ba8f a93d b7a8 0bbd
000000a0: 25b0 65bd 1712 eabc 9df9 113d 88c7 3a3d
000000b0: 2ab6 263d 85c6 8ebd 7272 083d ea63 3e3d
000000c0: 063e a1bb f818 9e3d 0615 413d df8c a3bd
000000d0: d9f9 6dbd 07e6 293c e7c4 71bd 8757 9fbd
000000e0: 5b88 9cbd 7ec5 5abc e712 adbd f313 353d
000000f0: 9c19 1f3d 791f 9cbd 0c84 a93d 43ed 803d
00000100: 106b 90bd 7a23 0dbd b89d 8ebd bf4e 42bd
00000110: bed1 5abd 672c 66bb 74c6 8e3b 5dd2 31bd
00000120: 0c5c debc da5b 93bd 4c5b afbc df7d af3d
00000130: 502b d73a 8874 f2bc a66a 8dbd 9d5e cf3c
00000140: afa4 31bc 4aa1 2b3d 68e7 a6bd 72f0 0dbd
00000150: e0f9 7c3c 94e5 73bd beb8 583c 644b 563d
00000160: bd01 17bd 7ca5 77bd d4d0 82bd a12c c33c
00000170: 65a9 83bd 3e9d 4f3d 31c7 f5bc 5297 6abb
00000180: b6c2 9abd 8f00 543d fa73 78bd a3ba 0a3d
00000190: cfb9 00bd 1e5d 223d ee91 063d 7560 9c3d
000001a0: 8389 eebb afe5 a8bd c85f 69bd bdd9 b4bd
000001b0: d8c9 65bb b215 87bc 4a72 a93d f4d5 aebd
000001c0: 78ee 6c3d 0f39 3abd 6a2b 9cbd 021e 9fbd
000001d0: 3a7e a3bd 5ac5 14bd 87fa aabd f12a 9c3b
000001e0: 8ed0 36bb b0c4 93bd 18c6 d93c 9780 c63c
000001f0: fc87 65bd b653 dfbc 2504 8a3d f45b b03c

fc.weight f4 [1, 128]
-0.067359224 0.06816323 -0.08683145 -0.07712042 -0.08518803 -0.083148554 -0.042498 0.04917527
-0.080975145 0.03280955 0.044916376 -0.062330823 -0.03965325 0.0030961055 -0.039314743 0.080122225
0.054827657 0.024395159 0.04832772 -0.067018665 -0.033572793 0.0647077 -0.0005001812 -0.025469288
0.052815907 0.080018856 0.0001775439 -0.07784574 -0.057711378 0.016672187 -0.06055312 0.073368885
0.052921135 0.075258866 -0.023928193 0.06385444 -0.017015405 -0.039943457 0.0028121253 0.03685119
-0.04106658 -0.012880459 0.04614292 -0.06045047 0.06431092 -0.011916742 0.038516566 0.016421232
-0.06467187 -0.017247876 -0.049541786 0.017912757 -0.08172541 0.030789688 0.059273172 0.007906555
0.05104384 -0.059536617 0.04376841 -0.057886757 -0.063969955 0.08252821 -0.024518153 -0.070031695
0.043794863 -0.04968971 -0.009882752 -0.04277742 -0.025715273 -0.033996206 0.031262413 0.03897523
-0.02820621 -0.010626277 0.03722985 0.008340446 0.06813242 0.03919175 -0.056287523 -0.005758075
0.040688198 0.006063875 -0.05245053 -0.012026276 0.085312545 0.037396733 -0.06711961 -0.014446373
0.023867238 0.046299987 -0.0429416 0.07530804 0.040000815 0.061577126 -0.07815707 0.045173854
0.08125459 0.0015219748 -0.07009987 0.023289127 0.018465646 -0.05807283 0.02579594 -0.08432826
-0.08319416 0.068465285 0.07787377 0.07473299 -0.0037091053 0.05745728 0.033101197 -0.03358487
-0.0029457163 0.06180936 0.012168921 0.08449974 -0.007457957 0.043307334 -0.031993452 -0.08063056
-0.061349247 0.04696044 -0.06683993 -0.05679047 -0.03775643 -0.072750695 -0.06597853 -0.01615707
00000000: a2f3 89bd 2a99 8b3d b0d4 b1bd 50f1 9dbd
00000010: 1077 aebd ca49 aabd 6212 2ebd 026c 493d
00000020: 4cd6 a5bd 4f63 063d 3cfa 373d 9b4e 7fbd
00000030: 726b 22bd 08e8 4a3b 7f08 21bd 1f17 a43d
00000040: f792 603d 5bd8 c73c 4af3 453d 1541 89bd
00000050: a083 09bd 7885 843d 981e 03ba f8a4 d0bc
00000060: 7e55 583d ede0 a33d 142b 3a39 966d 9fbd
00000070: c462 6cbd 1c94 883c 8c06 78bd 6d42 963d
00000080: d5c3 583d 5221 9a3d 0f05 c4bc 1ec6 823d
00000090: e463 8bbc c09b 23bd a24b 383b 46f1 163d
000000a0: 6e35 28bd 9008 53bc 5c00 3d3d e99a 77bd
000000b0: 72b5 833d 703e 43bc 8cc3 1d3d d285 863c
000000c0: af72 84bd 6b4b 8dbc 54ec 4abd c6bd 923c
000000d0: a75f a7bd a83a fc3c 6dc8 723d 7f8a 013c
000000e0: 5813 513d abdc 73bd 8146 333d aa1a 6dbd
000000f0: ae02 83bd 8d04 a93d 4bda c8bc c76c 8fbd
00000100: 3e62 333d 7087 4bbd 44eb 21bc 6037 2fbd
00000110: d6a8 d2bc 9b3f 0bbd 040d 003d 7ea4 1f3d
00000120: b610 e7bc d619 2ebc 547e 183d 5ea6 083c
00000130: 0389 8b3d 8787 203d bf8d 66bd 3cae bcbb
00000140: aba8 263d 78b3 c63b 5ed6 56bd dc09 45bc
00000150: 58b8 ae3d 512d 193d 0276 89bd 7bb0 6cbc
00000160: 3a85 c33c 0ea5 3d3d 88e3 2fbd 1a3b 9a3d
00000170: e5d7 233d 4c38 7c3d d010 a0bd 3808 393d
00000180: ce68 a63d 007d c73a 8590 8fbd d7c8 be3c
00000190: 4445 973c c7dd 6dbd 0252 d33c 4bb4 acbd
000001a0: b361 aabd 8737 8c3d 487c 9f3d 9c0d 993d
000001b0: 7614 73bb 5358 6b3d 1f95 073d 4a90 09bd
000001c0: eb0c 41bb d02b 7d3d 2760 473c 330e ad3d
000001d0: e161 f4bb 0863 313d 910b 03bd a321 a5bd
000001e0: 5949 7bbd 9759 403d 60e3 88bd 209d 68bd
000001f0: 7da6 1abd 51fe 94bd c01f 87bd d55b 84bc
